{"format": "torch", "nodes": [{"name": "shared", "id": 140544844064800, "class_name": "Embedding(32128, 512)", "parameters": [["weight", [32128, 512]]], "output_shape": [[16, 27, 512]], "num_parameters": [16449536]}, {"name": "encoder", "id": 140544844066672, "class_name": "T5Stack(\n  (embed_tokens): Embedding(32128, 512)\n  (block): ModuleList(\n    (0): T5Block(\n      (layer): ModuleList(\n        (0): T5LayerSelfAttention(\n          (SelfAttention): T5Attention(\n            (q): Linear(in_features=512, out_features=512, bias=False)\n            (k): Linear(in_features=512, out_features=512, bias=False)\n            (v): Linear(in_features=512, out_features=512, bias=False)\n            (o): Linear(in_features=512, out_features=512, bias=False)\n            (relative_attention_bias): Embedding(32, 8)\n          )\n          (layer_norm): T5LayerNorm()\n          (dropout): Dropout(p=0.1, inplace=False)\n        )\n        (1): T5LayerFF(\n          (DenseReluDense): T5DenseReluDense(\n            (wi): Linear(in_features=512, out_features=2048, bias=False)\n            (wo): Linear(in_features=2048, out_features=512, bias=False)\n            (dropout): Dropout(p=0.1, inplace=False)\n          )\n          (layer_norm): T5LayerNorm()\n          (dropout): Dropout(p=0.1, inplace=False)\n        )\n      )\n    )\n    (1): T5Block(\n      (layer): ModuleList(\n        (0): T5LayerSelfAttention(\n          (SelfAttention): T5Attention(\n            (q): Linear(in_features=512, out_features=512, bias=False)\n            (k): Linear(in_features=512, out_features=512, bias=False)\n            (v): Linear(in_features=512, out_features=512, bias=False)\n            (o): Linear(in_features=512, out_features=512, bias=False)\n          )\n          (layer_norm): T5LayerNorm()\n          (dropout): Dropout(p=0.1, inplace=False)\n        )\n        (1): T5LayerFF(\n          (DenseReluDense): T5DenseReluDense(\n            (wi): Linear(in_features=512, out_features=2048, bias=False)\n            (wo): Linear(in_features=2048, out_features=512, bias=False)\n            (dropout): Dropout(p=0.1, inplace=False)\n          )\n          (layer_norm): T5LayerNorm()\n          (dropout): Dropout(p=0.1, inplace=False)\n        )\n      )\n    )\n    (2): T5Block(\n      (layer): ModuleList(\n        (0): T5LayerSelfAttention(\n          (SelfAttention): T5Attention(\n            (q): Linear(in_features=512, out_features=512, bias=False)\n            (k): Linear(in_features=512, out_features=512, bias=False)\n            (v): Linear(in_features=512, out_features=512, bias=False)\n            (o): Linear(in_features=512, out_features=512, bias=False)\n          )\n          (layer_norm): T5LayerNorm()\n          (dropout): Dropout(p=0.1, inplace=False)\n        )\n        (1): T5LayerFF(\n          (DenseReluDense): T5DenseReluDense(\n            (wi): Linear(in_features=512, out_features=2048, bias=False)\n            (wo): Linear(in_features=2048, out_features=512, bias=False)\n            (dropout): Dropout(p=0.1, inplace=False)\n          )\n          (layer_norm): T5LayerNorm()\n          (dropout): Dropout(p=0.1, inplace=False)\n        )\n      )\n    )\n    (3): T5Block(\n      (layer): ModuleList(\n        (0): T5LayerSelfAttention(\n          (SelfAttention): T5Attention(\n            (q): Linear(in_features=512, out_features=512, bias=False)\n            (k): Linear(in_features=512, out_features=512, bias=False)\n            (v): Linear(in_features=512, out_features=512, bias=False)\n            (o): Linear(in_features=512, out_features=512, bias=False)\n          )\n          (layer_norm): T5LayerNorm()\n          (dropout): Dropout(p=0.1, inplace=False)\n        )\n        (1): T5LayerFF(\n          (DenseReluDense): T5DenseReluDense(\n            (wi): Linear(in_features=512, out_features=2048, bias=False)\n            (wo): Linear(in_features=2048, out_features=512, bias=False)\n            (dropout): Dropout(p=0.1, inplace=False)\n          )\n          (layer_norm): T5LayerNorm()\n          (dropout): Dropout(p=0.1, inplace=False)\n        )\n      )\n    )\n    (4): T5Block(\n      (layer): ModuleList(\n        (0): T5LayerSelfAttention(\n          (SelfAttention): T5Attention(\n            (q): Linear(in_features=512, out_features=512, bias=False)\n            (k): Linear(in_features=512, out_features=512, bias=False)\n            (v): Linear(in_features=512, out_features=512, bias=False)\n            (o): Linear(in_features=512, out_features=512, bias=False)\n          )\n          (layer_norm): T5LayerNorm()\n          (dropout): Dropout(p=0.1, inplace=False)\n        )\n        (1): T5LayerFF(\n          (DenseReluDense): T5DenseReluDense(\n            (wi): Linear(in_features=512, out_features=2048, bias=False)\n            (wo): Linear(in_features=2048, out_features=512, bias=False)\n            (dropout): Dropout(p=0.1, inplace=False)\n          )\n          (layer_norm): T5LayerNorm()\n          (dropout): Dropout(p=0.1, inplace=False)\n        )\n      )\n    )\n    (5): T5Block(\n      (layer): ModuleList(\n        (0): T5LayerSelfAttention(\n          (SelfAttention): T5Attention(\n            (q): Linear(in_features=512, out_features=512, bias=False)\n            (k): Linear(in_features=512, out_features=512, bias=False)\n            (v): Linear(in_features=512, out_features=512, bias=False)\n            (o): Linear(in_features=512, out_features=512, bias=False)\n          )\n          (layer_norm): T5LayerNorm()\n          (dropout): Dropout(p=0.1, inplace=False)\n        )\n        (1): T5LayerFF(\n          (DenseReluDense): T5DenseReluDense(\n            (wi): Linear(in_features=512, out_features=2048, bias=False)\n            (wo): Linear(in_features=2048, out_features=512, bias=False)\n            (dropout): Dropout(p=0.1, inplace=False)\n          )\n          (layer_norm): T5LayerNorm()\n          (dropout): Dropout(p=0.1, inplace=False)\n        )\n      )\n    )\n  )\n  (final_layer_norm): T5LayerNorm()\n  (dropout): Dropout(p=0.1, inplace=False)\n)", "parameters": [["embed_tokens.weight", [32128, 512]], ["block.0.layer.0.Self
…
norm.weight", [512]]], "output_shape": [[[[0], [0], [0], [0], [0], [0], [0], [0], 0, [0], [0], 0, 0, 0, 0, 0, 0]]], "num_parameters": [16449536, 262144, 262144, 262144, 262144, 256, 512, 1048576, 1048576, 512, 262144, 262144, 262144, 262144, 512, 1048576, 1048576, 512, 262144, 262144, 262144, 262144, 512, 1048576, 1048576, 512, 262144, 262144, 262144, 262144, 512, 1048576, 1048576, 512, 262144, 262144, 262144, 262144, 512, 1048576, 1048576, 512, 262144, 262144, 262144, 262144, 512, 1048576, 1048576, 512, 512]}, {"name": "decoder", "id": 140544844066576, "class_name": "T5Stack(\n  (embed_tokens): Embedding(32128, 512)\n  (block): ModuleList(\n    (0): T5Block(\n      (layer): ModuleList(\n        (0): T5LayerSelfAttention(\n          (SelfAttention): T5Attention(\n            (q): Linear(in_features=512, out_features=512, bias=False)\n            (k): Linear(in_features=512, out_features=512, bias=False)\n            (v): Linear(in_features=512, out_features=512, bias=False)\n            (o): Linear(in_features=512, out_features=512, bias=False)\n            (relative_attention_bias): Embedding(32, 8)\n          )\n          (layer_norm): T5LayerNorm()\n          (dropout): Dropout(p=0.1, inplace=False)\n        )\n        (1): T5LayerCrossAttention(\n          (EncDecAttention): T5Attention(\n            (q): Linear(in_features=512, out_features=512, bias=False)\n            (k): Linear(in_features=512, out_features=512, bias=False)\n            (v): Linear(in_features=512, out_features=512, bias=False)\n            (o): Linear(in_features=512, out_features=512, bias=False)\n          )\n          (layer_norm): T5LayerNorm()\n          (dropout): Dropout(p=0.1, inplace=False)\n        )\n        (2): T5LayerFF(\n          (DenseReluDense): T5DenseReluDense(\n            (wi): Linear(in_features=512, out_features=2048, bias=False)\n            (wo): Linear(in_features=2048, out_features=512, bias=False)\n            (dropout): Dropout(p=0.1, inplace=False)\n          )\n          (layer_norm): T5LayerNorm()\n          (dropout): Dropout(p=0.1, inplace=False)\n        )\n      )\n    )\n    (1): T5Block(\n      (layer): ModuleList(\n        (0): T5LayerSelfAttention(\n          (SelfAttention): T5Attention(\n            (q): Linear(in_features=512, out_features=512, bias=False)\n            (k): Linear(in_features=512, out_features=512, bias=False)\n            (v): Linear(in_features=512, out_features=512, bias=False)\n            (o): Linear(in_features=512, out_features=512, bias=False)\n          )\n          (layer_norm): T5LayerNorm()\n          (dropout): Dropout(p=0.1, inplace=False)\n        )\n        (1): T5LayerCrossAttention(\n          (EncDecAttention): T5Attention(\n            (q): Linear(in_features=512, out_features=512, bias=False)\n            (k): Linear(in_features=512, out_features=512, bias=False)\n            (v): Linear(in_features=512, out_features=512, bias=False)\n            (o): Linear(in_features=512, out_features=512, bias=False)\n          )\n          (layer_norm): T5LayerNorm()\n          (dropout): Dropout(p=0.1, inplace=False)\n        )\n        (2): T5LayerFF(\n          (DenseReluDense): T5DenseReluDense(\n            (wi): Linear(in_features=512, out_features=2048, bias=False)\n            (wo): Linear(in_features=2048, out_features=512, bias=False)\n            (dropout): Dropout(p=0.1, inplace=False)\n          )\n          (layer_norm): T5LayerNorm()\n          (dropout): Dropout(p=0.1, inplace=False)\n        )\n      )\n    )\n    (2): T5Block(\n      (layer): ModuleList(\n        (0): T5LayerSelfAttention(\n          (SelfAttention): T5Attention(\n            (q): Linear(in_features=512, out_features=512, bias=False)\n            (k): Linear(in_features=512, out_features=512, bias=False)\n            (v): Linear(in_features=512, out_features=512, bias=False)\n            (o): Linear(in_features=512, out_features=512, bias=False)\n          )\n          (layer_norm): T5LayerNorm()\n          (dropout): Dropout(p=0.1, inplace=False)\n        )\n        (1): T5LayerCrossAttention(\n          (EncDecAttention): T5Attention(\n            (q): Linear(in_features=512, out_features=512, bias=False)\n            (k): Linear(in_features=512, out_features=512, bias=False)\n            (v): Linear(in_features=512, out_features=512, bias=False)\n            (o): Linear(in_features=512, out_features=512, bias=False)\n          )\n          (layer_norm): T5LayerNorm()\n          (dropout): Dropout(p=0.1, inplace=False)\n        )\n        (2): T5LayerFF(\n          (DenseReluDense): T5DenseReluDense(\n            (wi): Linear(in_features=512, out_features=2048, bias=False)\n            (wo): Linear(in_features=2048, out_features=512, bias=False)\n            (dropout): Dropout(p=0.1, inplace=False)\n          )\n          (layer_norm): T5LayerNorm()\n          (dropout): Dropout(p=0.1, inplace=False)\n        )\n      )\n    )\n    (3): T5Block(\n      (layer): ModuleList(\n        (0): T5LayerSelfAttention(\n          (SelfAttention): T5Attention(\n            (q): Linear(in_features=512, out_features=512, bias=False)\n            (k): Linear(in_features=512, out_features=512, bias=False)\n            (v): Linear(in_features=512, out_features=512, bias=False)\n            (o): Linear(in_features=512, out_features=512, bias=False)\n          )\n          (layer_norm): T5LayerNorm()\n          (dropout): Dropout(p=0.1, inplace=False)\n        )\n        (1): T5LayerCrossAttention(\n          (EncDecAttention): T5Attention(\n            (q): Linear(in_features=512, out_features=512, bias=False)\n            (k): Linear(in_features=512, out_features=512, bias=False)\n            (v): Linear(in_features=512, out_features=512, bias=False)\n            (o): Linear(in_features=512, out_features=512, bias=False)\n          )\n          (layer_norm): T5LayerNorm()\n          (dropout): Dropout(p=0.1, inplace=False)\n        )\n        (2): T5LayerFF(\n          (DenseReluDense): T5DenseReluDense(\n            (wi): Linear(in_features=512, out_features=2048, bias=False)\n            (wo): Linear(in_features=2048, out_features=512, bias=False)\n            (dropout): Dropout(p=0.1, inplace=False)\n          )\n          (layer_norm): T5LayerNorm()\n          (dropout): Dropout(p=0.1, inplace=False)\n        )\n      )\n    )\n    (4): T5Block(\n      (layer): ModuleList(\n        (0): T5LayerSelfAttention(\n          (SelfAttention): T5Attention(\n            (q): Linear(in_features=512, out_features=512, bias=False)\n            (k): Linear(in_features=512, out_features=512, bias=False)\n            (v): Linear(in_features=512, out_features=512, bias=False)\n            (o): Linear(in_features=512, out_features=512, bias=False)\n          )\n          (layer_norm): T5LayerNorm()\n          (dropout): Dropout(p=0.1, inplace=False)\n        )\n        (1): T5LayerCrossAttention(\n          (EncDecAttention): T5Attention(\n            (q): Linear(in_features=512, out_features=512, bias=False)\n            (k): Linear(in_features=512, out_features=512, bias=False)\n            (v): Linear(in_features=512, out_features=512, bias=False)\n            (o): Linear(in_features=512, out_features=512, bias=False)\n          )\n          (layer_norm): T5LayerNorm()\n          (dropout): Dropout(p=0.1, inplace=False)\n        )\n        (2): T5LayerFF(\n          (DenseReluDense): T5DenseReluDense(\n            (wi): Linear(in_features=512, out_features=2048, bias=False)\n            (wo): Linear(in_features=2048, out_features=512, bias=False)\n            (dropout): Dropout(p=0.1, inplace=False)\n          )\n          (layer_norm): T5LayerNorm()\n          (dropout): Dropout(p=0.1, inplace=False)\n        )\n      )\n    )\n    (5): T5Block(\n      (layer): ModuleList(\n        (0): T5LayerSelfAttention(\n          (SelfAttention): T5Attention(\n            (q): Linear(in_features=512, out_features=512, bias=False)\n            (k): Linear(in_features=512, out_features=512, bias=False)\n            (v): Linear(in_features=512, out_features=512, bias=False)\n            (o): Linear(in_features=512, out_features=512, bias=False)\n          )\n          (layer_norm): T5LayerNorm()\n          (dropout): Dropout(p=0.1, inplace=False)\n        )\n        (1): T5LayerCrossAttention(\n          (EncDecAttention): T5Attention(\n            (q): Linear(in_features=512, out_features=512, bias=False)\n            (k): Linear(in_features=512, out_features=512, bias=False)\n            (v): Linear(in_features=512, out_features=512, bias=False)\n            (o): Linear(in_features=512, out_features=512, bias=False)\n          )\n          (layer_norm): T5LayerNorm()\n          (dropout): Dropout(p=0.1, inplace=False)\n        )\n        (2): T5LayerFF(\n          (DenseReluDense): T5DenseReluDense(\n            (wi): Linear(in_features=512, out_features=2048, bias=False)\n            (wo): Linear(in_features=2048, out_features=512, bias=False)\n            (dropout): Dropout(p=0.1, inplace=False)\n          )\n          (layer_norm): T5LayerNorm()\n          (dropout): Dropout(p=0.1, inplace=False)\n        )\n      )\n    )\n  )\n  (final_layer_norm): T5LayerNorm()\n  (dropout): Dropout(p=0.1, inplace=False)\n)", "parameters": [["embed_tokens.weight", [32128, 512]], ["block.0.layer.0.Self
…
